model.pt (torch, 3810 bytes, 7 tensors)

module.conv1.weight f4 [4, 2, 9]
00000000: 2b83 343c 3999 803c dd05 67bd e608 8cbd
00000010: fdd4 bb3d 468d 8fbd dafa 9d3d 9947 52bd
00000020: 42a3 243d 0854 8e3d cee8 2abe 6a69 e03d
00000030: c718 e83d 918b 16bd 45a1 0ebe 4d23 e53d
00000040: 211e a6bb aed3 2abd 3a1b 1ebd 3230 49bc
00000050: 5e27 973d 7c99 14bc 50fa 9dbc bf6b b1bd
00000060: 42ec 913d 94f5 d0bd 4755 d13d 2c26 dc3d
00000070: 9bcb 2bbe dd11 b73d ca67 12bd 70b7 023d
00000080: 0569 16bc a46a d63d 005e 3fbd 0708 4bbd
00000090: 832f 0abf 5c98 dfbe 7654 d3be d9d7 e4bd
000000a0: 4610 16be b53a 76be c5d9 69be 9e21 28be
000000b0: 8915 13be adbe 2a3e 38f4 163e e76f 413e
000000c0: 4e69 053c eb97 183e c742 ad3e 6b76 bd3e
000000d0: 0ea4 d23e 9c42 113f 4822 bbbd 813f 48bb
000000e0: e7b1 c43d d328 1e3d 974a 543d cb8e 623c
000000f0: 2d12 38bd 5537 813d 5cfd 5cbd 3fea d6bc
00000100: 7c3a a2bd 88a8 27bd 4fe9 c4bd f57f 2b3c
00000110: f5f2 eb3a 937f 57ba 30ac 06be 71b5 b9bc
0.011017601 0.015698062 -0.056402076 -0.06837635 0.09171484 -0.07009368 0.07713862 -0.051337812
0.040194757 0.069496214 -0.1669037 0.10957606 0.11332851 -0.036754195 -0.13928707 0.11188374
-0.0050695096 -0.04170578 -0.038600184 -0.012279557 0.073805556 -0.009069797 -0.019284397 -0.08663129
0.07125141 -0.1020309 0.102213435 0.10749468 -0.16776888 0.08938954 -0.035743512 0.03191322
-0.009180312 0.10469559 -0.046720505 -0.049568202 -0.5397875 -0.43670928 -0.41275376 -0.11173982
-0.14654645 -0.24045832 -0.22836979 -0.16419074 -0.14363684 0.166743 0.147416 0.18890344
0.008142782 0.14901702 0.3384001 0.37004408 0.4114079 0.5674226 -0.09137398 -0.003055543
0.09604245 0.03861315 0.051828947 0.01382799 -0.04493921 0.06309382 -0.05395256 -0.026234744
-0.07921311 -0.04093221 -0.096148126 0.010467519 0.0018001484 -0.0008220609 -0.13151622 -0.022669526

module.conv1.bias f4 [4]
00000000: 6722 f13c 8e14 0a3d d943 2e3d 610d 853b
0.02943535 0.03371101 0.042545173 0.004060433

module.bn1.weight f4 [4]
00000000: f076 7f40 aad2 8340 6e1f d3bf f804 6140
3.9916344 4.119466 -1.6493967 3.5159283

module.bn1.bias f4 [4]
00000000: 6a2a 01c0 bd80 07c0 c2d0 1340 0f5a a8bf
-2.0182137 -2.1172326 2.3096166 -1.3152484

module.bn1.running_mean f4 [4]
00000000: 4737 f63c 28ac 0a3d b067 2d3d 044e 853b
0.030055655 0.033855587 0.042335212 0.004068138

module.bn1.running_var f4 [4]
00000000: c1ae 8f36 3546 9b36 114c 3d38 f01f bf36
4.282076e-06 4.627533e-06 4.5131954e-05 5.6959616e-06

module.fc1.weight f4 [1, 4]
00000000: f03b 9340 2441 8f40 7fb6 d9bf 5d22 5e40
4.6010666 4.4767017 -1.7008818 3.4708474
